model/ColorModel.tflite (tflite, 4132 bytes, 6 tensors)

dense_Dense3/bias f4 [9]
0	0xbf6a3203	-0.9148256
1	0xbf8a0d33	-1.0785278
2	0x3e267f13	0.16259412
3	0xbe08cf89	-0.13360418
4	0x3f88053e	1.06266
5	0xbf0e5866	-0.55603635
6	0x3e198133	0.14990692
7	0x3f8b5c13	1.0887474
8	0x3e6055fd	0.21907802

dense_Dense2/bias f4 [16]
0	0xbec5e7f4	-0.3865353
1	0xbf25d328	-0.64775324
2	0xbe855808	-0.26043725
3	0xbeb2d368	-0.34926915
4	0xbe8a9eac	-0.27074182
5	0x3d5b181e	0.053489797
6	0xbeef992c	-0.46796548
7	0xbeab8a67	-0.3350403
8	0xbee500b2	-0.44727093
9	0x3f81b5c0	1.0133591
10	0xbf0739e9	-0.5282274
11	0x3f3e0e25	0.7424033
12	0x3f30326f	0.68826956
13	0x3f862ff5	1.0483385
14	0xbf08a109	-0.5337072
15	0x3e3ce80c	0.18447894

dense_Dense1/bias f4 [16]
0	0xbf483726	-0.7820915
1	0xbf51dfbf	-0.81982034
2	0x3eeb9716	0.46013707
3	0xbf9a6bdf	-1.206417
4	0x3fc8bb13	1.568209
5	0xbf24239b	-0.6411683
6	0x3f08de05	0.53463775
7	0xbf47b990	-0.7801752
8	0xc006fa03	-2.1090095
9	0x402bba22	2.6832356
10	0x3e82711c	0.2547692
11	0xbc07a259	-0.008278453
12	0x3fa7a633	1.3097595
13	0xbfb3d363	-1.4048885
14	0xbeec0e52	-0.46104676
15	0x3eaec399	0.34133604

sequential_1/dense_Dense1/MatMul f4 [16, 3]
0	0xbfa3cbf4	-1.2796617
1	0xbf8fe120	-1.1240578
2	0x408b5592	4.3541956
3	0xbec143ba	-0.37746984
4	0x407bc573	3.9339263
5	0xc0414030	-3.0195427
6	0x3ff44e81	1.9086457
7	0x3dd543fa	0.10413356
8	0xc04d8ef9	-3.2118514
9	0xc03256d7	-2.7865503
10	0x4102dfc2	8.179628
11	0xc08ac21a	-4.336194
12	0x403b506c	2.9267836
13	0xc0cfa56a	-6.488942
14	0x3fb9ac53	1.4505714
15	0xbede6e0d	-0.43443337
16	0x4011fbd9	2.2809966
17	0xc002f979	-2.0464766
18	0xc08dc7d1	-4.4306417
19	0x404b6640	3.1781158
20	0xbeef0da4	-0.46690094
21	0x4092bb42	4.5853586
22	0xbfaf05fa	-1.3673699
23	0xc0109a51	-2.2594187
24	0x3f80bf14	1.0058312
25	0x40184023	2.3789146
26	0x3f5c6d78	0.86104536
27	0xbfd27437	-1.6441716
28	0xc020d055	-2.5127156
29	0xbf75b637	-0.9598116
30	0x4052a192	3.2911115
31	0x3ffffe44	1.9999471
32	0xbff9c29a	-1.9512513
33	0x4021e6a0	2.5297012
34	0xc04c4ce6	-3.1921935
35	0xc015fc5a	-2.3435273
36	0xc093578a	-4.604436
37	0x3f9ab53c	1.2086558
38	0x3fdd1f98	1.7275267
39	0x3ef4999e	0.4777345
40	0xbe695d68	-0.22789538
41	0x407247b6	3.785627
42	0xc04c990b	-3.196841
43	0xbfd7dab2	-1.6863616
44	0x40502e1a	3.2528138
45	0xbf07e478	-0.5308299
46	0x40a7f30f	5.2484202
47	0xc0c33d9c	-6.1012707

sequential_1/dense_Dense2/MatMul f4 [16, 16]
0	0x3ea5fb19	0.32418135
1	0x3e7ede02	0.24889377
2	0xbf49ff00	-0.78904724
3	0x3fb8c905	1.4436346
4	0xbee55fa3	-0.44799528
5	0xbe1f2dfb	-0.15544884
6	0x3f8af464	1.0855832
7	0xbfa5249f	-1.2901801
8	0xbf6d77ec	-0.9276111
9	0x3f742629	0.9537073
10	0xbf933692	-1.1501029
11	0xbf358aef	-0.7091512
12	0x3f9f80e6	1.2461212
13	0xbf320f5a	-0.69554675
14	0x3f82cec9	1.0219356
15	0x3f9823b5	1.1885897
16	0xbe9fbd33	-0.31199035
17	0xbe820ac2	-0.25398833
18	0xbd201649	-0.039083753
19	0xbd985839	-0.07438702
20	0x3ddb7135	0.10714952
21	0xbeaa9cfd	-0.33322898
22	0xbfeded69	-1.8588077
23	0x3fd549d6	1.6663158
24	0x3e82d5e3	0.25553808
25	0xbfd400a3	-1.6562694
26	0x3ea18553	0.3154703
27	0x3dd27e62	0.10278012
28	0xbfee0b48	-1.8597193
29	0x3ef1f175	0.4725453
30	0xbf70f9ff	-0.94131464
31	0xbd8f6760	-0.07002139
32	0x3f3a19f3	0.72695845
33	0xbf27978a	-0.65465605
34	0xbf38b141	-0.7214547
35	0xbf8386b7	-1.0275487
36	0x3e7a5d95	0.24449761
37	0xbe903222	-0.28163248
38	0xbe87e3d4	-0.26541007
39	0xbf46d7f2	-0.77673256
40	0xbd332dfd	-0.04374503
41	0x3f157844	0.58386636
42	0xbf6f62cf	-0.93510145
43	0xbe95fe41	-0.29295543
44	0x3e827c22	0.2548533
45	0x3f067dfd	0.5253599
46	0x3f3e3db5	0.7431291
47	0xbf41feb6	-0.75779283
48	0x3f0f9818	0.5609145
49	0x3fae16b9	1.3600684
50	0xbfa52f88	-1.290513
51	0x407f094f	3.9849432
52	0xc01629a8	-2.3462925
53	0x3f5920db	0.8481576
54	0x40122f99	2.2841551
55	0xc00f8351	-2.24239
56	0xbf34571a	-0.70445406
57	0x3ef9e5d8	0.4880817
58	0xc00e15b1	-2.220074
59	0xc0170673	-2.3597686
60	0x3fd433b8	1.6578283
61	0xbdfdf40a	-0.124000624
62	0x3faf7ea6	1.3710525
63	0x4018736d	2.382045
64	0x3e382af7	0.1798514
65	0x3e5caf53	0.21551256
66	0xbf1ec371	-0.6201697
67	0x3fe722be	1.8057477
68	0xbf48f357	-0.7849631
69	0x3f021328	0.5081048
70	0x3fc3a2c2	1.5284045
71	0xbfbe90f5	-1.4887987
72	0xbf78c4ad	-0.97175103
73	0x3f3fbb60	0.74895287
74	0xbf8c745a	-1.0973008
75	0xbf7389c7	-0.95132107
76	0x3fb872c1	1.441002
77	0xbe9d5542	-0.3072911
78	0x3f589bc9	0.8461271
79	0x3f4bae1e	0.79562557
80	0xbfa14c6c	-1.2601447
81	0x3f00ec81	0.50360876
82	0x3f655f85	0.89598876
83	0x3eb46d08	0.35239434
84	0xbf1d502e	-0.6145047
85	0x3f543a50	0.8290148
86	0x3f2476c9	0.6424375
87	0x3f28bf04	0.65916467
88	0x3f1214f6	0.57063234
89	0xbe1e8e13	-0.15483885
90	0x3f7001d2	0.9375278
91	0x3f5875c6	0.8455471
92	0xbf3c5505	-0.7356723
93	0xbf510af0	-0.81657314
94	0xbf33bfe7	-0.70214695
95	0x3fb5d7fe	1.420654
96	0xbf7b3d8c	-0.9814079
97	0x3d011b69	0.03152028
98	0x3f65cebd	0.8976858
99	0xbfa5b0df	-1.2944602
100	0x3f39bd2e	0.7255429
101	0x3b87f061	0.0041485284
102	0xbfe383bf	-1.7774581
103	0x3fb19e12	1.3876364
104	0xbe098a0e	-0.1343157
105	0xbea6094e	-0.32428974
106	0x3f743a33	0.95401305
107	0x3f4cd7c7	0.8001675
108	0xc00570e5	-2.0850155
109	0xbf21ff83	-0.63280505
110	0xbfad6374	-1.3545976
111	0x3f404c73	0.7511665
112	0xbe518a7e	-0.20462987
113	0x3f96cf87	1.1782082
114	0xbf0f3fc9	-0.55956703
115	0x40207dbd	2.5076745
116	0xbfe79a39	-1.809394
117	0x3f27f5c8	0.6560941
118	0x3f80fc34	1.0076966
119	0xbeb99a7d	-0.36250678
120	0x3fa23fc8	1.2675714
121	0xbfad0864	-1.3518186
122	0x3e634861	0.22195579
123	0xbfbe9e29	-1.4892017
124	0x3efceb70	0.49398375
125	0x3ede58cf	0.4342713
126	0xbedcc107	-0.43116018
127	0x3f84a04e	1.0361421
128	0x3f9b627e	1.2139432
129	0x3fb4458b	1.4083723
130	0xbfbefc2d	-1.4920708
131	0x40408510	3.0081215
132	0xc06c367d	-3.6908257
133	0x3f2be0ce	0.671399
134	0x3fb542e0	1.4161034
135	0xc0163f32	-2.3476071
136	0x3f36ee56	0.7145742
137	0xbf73f20b	-0.95291203
138	0xbf38b7c1	-0.72155386
139	0xc0091560	-2.1419296
140	0x3fc216ff	1.5163268
141	0x3f819e1d	1.0126377
142	0x3f9ff369	1.2496158
143	0x3f883e38	1.0643988
144	0x406a0a1b	3.6568668
145	0xc00406e1	-2.0629199
146	0xbfd7e02f	-1.686529
147	0xc052f7f8	-3.2963848
148	0x3f88f71b	1.0700411
149	0xbf93269b	-1.1496156
150	0xbf25bb88	-0.64739275
151	0xbf28e166	-0.6596893
152	0x3f343a7e	0.7040175
153	0xbee490f2	-0.44641834
154	0xbf74ce67	-0.95627445
155	0xbf87c766	-1.0607727
156	0x3f87b770	1.0602856
157	0x4055c7b5	3.3403141
158	0x404733d4	3.1125383
159	0xc0926600	-4.574951
160	0xbedf5c7e	-0.43625253
161	0x3f9fc6cc	1.2482543
162	0x3e162327	0.14661847
163	0x400d7fd9	2.2109282
164	0xbfe2c61b	-1.7716707
165	0x3f23dfd5	0.64013416
166	0xbe7575c9	-0.23970713
167	0x3f08304b	0.5319869
168	0x3ff1ee81	1.8900911
169	0xc017e1c8	-2.3731556
170	0x3f992f71	1.1967603
171	0xbf208bfa	-0.6271359
172	0xbf155429	-0.58331543
173	0x3f1ebf56	0.62010705
174	0xbfbf2612	-1.4933493
175	0x3f830dc7	1.023858
176	0x3e5efb3b	0.21775524
177	0xbd36a6ab	-0.04459254
178	0xbeaf9153	-0.3429056
179	0x3f144e80	0.5793228
180	0x3f7675fa	0.9627377
181	0x3e92bd18	0.28659892
182	0x40278a9f	2.6178358
183	0xc026310a	-2.596743
184	0xbfdb5c70	-1.7137585
185	0x4026ade2	2.604363
186	0xbfb76dce	-1.4330385
187	0xbf0b6349	-0.5444837
188	0x40548406	3.320558
189	0xbfa14b81	-1.2601167
190	0x3fc6ada4	1.5521741
191	0x3fa31dbc	1.2743449
192	0x3f0e7465	0.55646354
193	0xbfa54970	-1.2913036
194	0xbe2d55ea	-0.16927305
195	0xc0230609	-2.5472434
196	0x402db8a3	2.7143943
197	0xbeef7e50	-0.46776056
198	0xbfbdf500	-1.4840393
199	0x3f5083ad	0.8145092
200	0xbe904b0d	-0.2818226
201	0x3f115450	0.56769276
202	0x3f047e0a	0.5175482
203	0x3f90718d	1.1284653
204	0xbea0ec09	-0.3143008
205	0x3f61397b	0.87978333
206	0x3e20e4c0	0.15712261
207	0xc00108da	-2.0161653
208	0x3febbc86	1.8416908
209	0xc01bdf23	-2.4354942
210	0xbf5a905b	-0.8537652
211	0xc0880226	-4.2502623
212	0x40637610	3.554081
213	0xbfc7c224	-1.5606122
214	0xbfbdcd84	-1.4828343
215	0x3e9755a4	0.29557526
216	0xbf53afcc	-0.8269012
217	0x3fd39e51	1.6532689
218	0xbf94baa6	-1.161946
219	0x3fd3cd13	1.6546959
220	0x3f0a980c	0.54138255
221	0x3fd37e3a	1.6522896
222	0x4006371f	2.0971143
223	0xc084fc1e	-4.155776
224	0xc011c3de	-2.2775798
225	0xbefc0674	-0.49223673
226	0x3f9786d6	1.1838024
227	0xc015100d	-2.3291047
228	0x3ff9f356	1.9527385
229	0xbe1c11ce	-0.15241167
230	0xbf0a13fa	-0.5393673
231	0x3eacdbde	0.33761495
232	0xbfbb7ef9	-1.4648124
233	0x3f40707c	0.7517164
234	0x3f055d4c	0.52095485
235	0x3fb9275a	1.4465134
236	0xbf7b4a5e	-0.9816035
237	0xc004b320	-2.073433
238	0xbfc2daea	-1.5223057
239	0x3eece07d	0.4626502
240	0xbeef3d27	-0.46726343
241	0x3eb05ea2	0.344472
242	0x3f110748	0.56651735
243	0x3e56dcc6	0.20982656
244	0x3f4b2421	0.79352003
245	0x3e11379e	0.14181373
246	0x3ee123bf	0.43972585
247	0x3d69fb27	0.057124283
248	0xbf629be0	-0.88519096
249	0x3f6462ff	0.89213556
250	0xbe55dd90	-0.208853
251	0x3f1d3986	0.614159
252	0xbcdfcc43	-0.02731908
253	0xbf631d76	-0.8871683
254	0x3ec1789e	0.37787336
255	0x3fb5726f	1.4175547

sequential_1/dense_Dense3/MatMul f4 [9, 16]
0	0x3fc1fc7f	1.5155181
1	0xbfe87df0	-1.8163433
2	0xbe91f913	-0.2851034
3	0x4007a4ce	2.1194339
4	0x3faff9c6	1.37481
5	0x3ec2311a	0.37928087
6	0xbfa60650	-1.2970676
7	0xbf6298de	-0.88514507
8	0xbfba11f7	-1.4536732
9	0xc0941c35	-4.6284432
10	0xc0580102	-3.3750615
11	0x3fce0781	1.609604
12	0xbecf062e	-0.40434402
13	0x4000971d	2.0092232
14	0x3faf719d	1.3706547
15	0x3dc8ebff	0.09810638
16	0xbfa46f58	-1.284648
17	0x3f384890	0.7198572
18	0xbf55f995	-0.83583957
19	0xbc7a9268	-0.015293695
20	0xbf9bb68e	-1.2165086
21	0xbf2763af	-0.6538648
22	0xbff44894	-1.9084649
23	0x3f8aa56c	1.0831733
24	0x405ac960	3.418541
25	0x4096db0e	4.71424
26	0x3ffca3e0	1.9737511
27	0xc035b980	-2.839447
28	0x3dee0e4a	0.11623819
29	0xc0116c9a	-2.2722535
30	0xbffbe023	-1.9677776
31	0xbff839c7	-1.9392632
32	0x3fd506f0	1.6642742
33	0xbf966e37	-1.1752385
34	0x3fa496c0	1.2858505
35	0x402469c8	2.5689564
36	0x3f97883b	1.1838449
37	0xbfc7c3cd	-1.5606629
38	0xbe9ab7b6	-0.30218285
39	0x3f62fbba	0.88665354
40	0x400307a6	2.0473418
41	0xbfd871cf	-1.6909732
42	0xbf397191	-0.72438914
43	0x4041dd95	3.0291493
44	0xbe7ea999	-0.24869384
45	0xc07c7eb6	-3.9452338
46	0xc01e4439	-2.472914
47	0x3efb6f54	0.49108374
48	0xbf60e387	-0.8784718
49	0x3f6e2a14	0.93032956
50	0xbfaa7908	-1.3318186
51	0xc02525ca	-2.5804315
52	0xbf8fa4db	-1.1222185
53	0x3fed1870	1.8523083
54	0x3fa4c0e7	1.2871369
55	0x3fce1dee	1.6102884
56	0xc02b40bb	-2.6758258
57	0x3ff710e9	1.9302036
58	0x3f4c62ad	0.7983807
59	0xc01725e1	-2.361687
60	0x3f672e6a	0.903052
61	0x40091bea	2.1423287
62	0xbfb85be5	-1.4403044
63	0x3e6782e5	0.22608526
64	0xbf1cfd38	-0.6132388
65	0x3ff217d6	1.8913524
66	0xbc989cc0	-0.018629432
67	0xc0118bd4	-2.2741594
68	0xbeafd8c7	-0.34345075
69	0x3f961f1e	1.1728246
70	0x3f9bde4b	1.2177213
71	0x3f51d561	0.81966215
72	0xc009148d	-2.1418793
73	0xc03c48ea	-2.9419503
74	0x40001a81	2.0016177
75	0xbf988336	-1.1915042
76	0x3fbc1442	1.4693682
77	0xc05116af	-3.2670095
78	0x3fab6d19	1.3392669
79	0x3f155eed	0.5834797
80	0x3fc06ae0	1.5032616
81	0xbf9fc111	-1.2480794
82	0x3f1c303b	0.61011094
83	0x4046b45b	3.104758
84	0x4007b8a2	2.120644
85	0xc01efaa4	-2.484048
86	0xc0132fec	-2.2998
87	0xbf80be17	-1.0058011
88	0x3f31cc01	0.6945191
89	0x407fcc47	3.996843
90	0x3fb1888e	1.3869798
91	0x400572c4	2.0851297
92	0xbfe23a1b	-1.7673982
93	0xbe65e4d0	-0.22450566
94	0xc0246147	-2.5684373
95	0xbfb3b475	-1.4039446
96	0xbfc70487	-1.5548257
97	0x3eb3bbf6	0.3510434
98	0xbdf6957d	-0.120402314
99	0xc012bb96	-2.2926993
100	0xbfe1fa04	-1.7654424
101	0x3ec5f513	0.3866354
102	0x3fcc5903	1.5964664
103	0xc007fde5	-2.1248715
104	0xc00a8f42	-2.1649938
105	0xc0732ff9	-3.799803
106	0xbf813fd0	-1.0097599
107	0xbe291af5	-0.1651419
108	0x3f9f355c	1.2438159
109	0x406a04b8	3.656538
110	0x404f4301	3.2384646
111	0xbe21ad24	-0.15788704
112	0x3f04e609	0.51913506
113	0x3fea0056	1.8281353
114	0x3f18d564	0.5970061
115	0x3f5edb07	0.8705296
116	0xbf2a37a9	-0.6649118
117	0x3f286314	0.6577618
118	0x3ff5f66d	1.9215828
119	0x3eca35d5	0.39494196
120	0x3fdf589a	1.7448914
121	0xbe1ef68e	-0.1552374
122	0xbe2c1cfe	-0.16807935
123	0xbfcdb9e2	-1.6072352
124	0xc031d1c9	-2.7784293
125	0x3f1e34f2	0.6179954
126	0xbcbd4881	-0.023105862
127	0x3fab5e94	1.3388238
128	0xbf5d4863	-0.8643858
129	0xbef01e30	-0.4689803
130	0x3d1c3607	0.038137462
131	0xc024554c	-2.567706
132	0xbf10a66a	-0.5650393
133	0x3eb43bde	0.35201925
134	0xbec89077	-0.39172718
135	0xbdf66cfa	-0.120325044
136	0xbe83b701	-0.25725558
137	0x403d4738	2.9574718
138	0xbfad0e92	-1.3520072
139	0x3f912186	1.1338356
140	0x3f6428c0	0.8912468
141	0x3fee618b	1.8623518
142	0x3f0513bf	0.51983255
143	0xbf342080	-0.7036209
